…
19 Concat
20 C3
21 Conv
22 Concat
23 C3  ← penultimate
24 Detect


| Your Name   | Correct model.model[i]     |
| ----------- | -------------------------- |
| early_conv  | 0                          |
| mid_c3      | 8 (if you mean deepest C3) |
| sppf        | 9                          |
| fusion1     | 13                         |
| fusion2     | 17                         |
| penultimate | 23                         |




START DUMP Print model_-------------------


DetectMultiBackend(
  (model): DetectionModel(
    (model): Sequential(
      (0): Conv(
        (conv): Conv2d(3, 32, kernel_size=(6, 6), stride=(2, 2), padding=(2, 2))
        (act): SiLU(inplace=True)
      )
      (1): Conv(
        (conv): Conv2d(32, 64, kernel_size=(3, 3), stride=(2, 2), padding=(1, 1))
        (act): SiLU(inplace=True)
      )
      (2): C3(
        (cv1): Conv(
          (conv): Conv2d(64, 32, kernel_size=(1, 1), stride=(1, 1))
          (act): SiLU(inplace=True)
        )
        (cv2): Conv(
          (conv): Conv2d(64, 32, kernel_size=(1, 1), stride=(1, 1))
          (act): SiLU(inplace=True)
        )
        (cv3): Conv(
          (conv): Conv2d(64, 64, kernel_size=(1, 1), stride=(1, 1))
          (act): SiLU(inplace=True)
        )
        (m): Sequential(
          (0): Bottleneck(
            (cv1): Conv(
              (conv): Conv2d(32, 32, kernel_size=(1, 1), stride=(1, 1))
              (act): SiLU(inplace=True)
            )
            (cv2): Conv(
              (conv): Conv2d(32, 32, kernel_size=(3, 3), stride=(1, 1), padding=(1, 1))
              (act): SiLU(inplace=True)
            )
          )
        )
      )
      (3): Conv(
        (conv): Conv2d(64, 128, kernel_size=(3, 3), stride=(2, 2), padding=(1, 1))
        (act): SiLU(inplace=True)
      )
      (4): C3(
        (cv1): Conv(
          (conv): Conv2d(128, 64, kernel_size=(1, 1), stride=(1, 1))
          (act): SiLU(inplace=True)
        )
        (cv2): Conv(
          (conv): Conv2d(128, 64, kernel_size=(1, 1), stride=(1, 1))
          (act): SiLU(inplace=True)
        )
        (cv3): Conv(
          (conv): Conv2d(128, 128, kernel_size=(1, 1), stride=(1, 1))
          (act): SiLU(inplace=True)
        )
        (m): Sequential(
          (0): Bottleneck(
            (cv1): Conv(
              (conv): Conv2d(64, 64, kernel_size=(1, 1), stride=(1, 1))
              (act): SiLU(inplace=True)
            )
            (cv2): Conv(
              (conv): Conv2d(64, 64, kernel_size=(3, 3), stride=(1, 1), padding=(1, 1))
              (act): SiLU(inplace=True)
            )
          )
          (1): Bottleneck(
            (cv1): Conv(
              (conv): Conv2d(64, 64, kernel_size=(1, 1), stride=(1, 1))
              (act): SiLU(inplace=True)
            )
            (cv2): Conv(
              (conv): Conv2d(64, 64, kernel_size=(3, 3), stride=(1, 1), padding=(1, 1))
              (act): SiLU(inplace=True)
            )
          )
        )
      )
      (5): Conv(
        (conv): Conv2d(128, 256, kernel_size=(3, 3), stride=(2, 2), padding=(1, 1))
        (act): SiLU(inplace=True)
      )
      (6): C3(
        (cv1): Conv(
          (conv): Conv2d(256, 128, kernel_size=(1, 1), stride=(1, 1))
          (act): SiLU(inplace=True)
        )
        (cv2): Conv(
          (conv): Conv2d(256, 128, kernel_size=(1, 1), stride=(1, 1))
          (act): SiLU(inplace=True)
        )
        (cv3): Conv(
          (conv): Conv2d(256, 256, kernel_size=(1, 1), stride=(1, 1))
          (act): SiLU(inplace=True)
        )
        (m): Sequential(
          (0): Bottleneck(
            (cv1): Conv(
              (conv): Conv2d(128, 128, kernel_size=(1, 1), stride=(1, 1))
              (act): SiLU(inplace=True)
            )
            (cv2): Conv(
              (conv): Conv2d(128, 128, kernel_size=(3, 3), stride=(1, 1), padding=(1, 1))
              (act): SiLU(inplace=True)
            )
          )
          (1): Bottleneck(
            (cv1): Conv(
              (conv): Conv2d(128, 128, kernel_size=(1, 1), stride=(1, 1))
              (act): SiLU(inplace=True)
            )
            (cv2): Conv(
              (conv): Conv2d(128, 128, kernel_size=(3, 3), stride=(1, 1), padding=(1, 1))
              (act): SiLU(inplace=True)
            )
          )
          (2): Bottleneck(
            (cv1): Conv(
              (conv): Conv2d(128, 128, kernel_size=(1, 1), stride=(1, 1))
              (act): SiLU(inplace=True)
            )
            (cv2): Conv(
              (conv): Conv2d(128, 128, kernel_size=(3, 3), stride=(1, 1), padding=(1, 1))
              (act): SiLU(inplace=True)
            )
          )
        )
      )
      (7): Conv(
        (conv): Conv2d(256, 512, kernel_size=(3, 3), stride=(2, 2), padding=(1, 1))
        (act): SiLU(inplace=True)
      )
      (8): C3(
        (cv1): Conv(
          (conv): Conv2d(512, 256, kernel_size=(1, 1), stride=(1, 1))
          (act): SiLU(inplace=True)
        )
        (cv2): Conv(
          (conv): Conv2d(512, 256, kernel_size=(1, 1), stride=(1, 1))
          (act): SiLU(inplace=True)
        )
        (cv3): Conv(
          (conv): Conv2d(512, 512, kernel_size=(1, 1), stride=(1, 1))
          (act): SiLU(inplace=True)
        )
        (m): Sequential(
          (0): Bottleneck(
            (cv1): Conv(
              (conv): Conv2d(256, 256, kernel_size=(1, 1), stride=(1, 1))
              (act): SiLU(inplace=True)
            )
            (cv2): Conv(
              (conv): Conv2d(256, 256, kernel_size=(3, 3), stride=(1, 1), padding=(1, 1))
              (act): SiLU(inplace=True)
            )
          )
        )
      )
      (9): SPPF(
        (cv1): Conv(
          (conv): Conv2d(512, 256, kernel_size=(1, 1), stride=(1, 1))
          (act): SiLU(inplace=True)
        )
        (cv2): Conv(
          (conv): Conv2d(1024, 512, kernel_size=(1, 1), stride=(1, 1))
          (act): SiLU(inplace=True)
        )
        (m): MaxPool2d(kernel_size=5, stride=1, padding=2, dilation=1, ceil_mode=False)
      )
      (10): Conv(
        (conv): Conv2d(512, 256, kernel_size=(1, 1), stride=(1, 1))
        (act): SiLU(inplace=True)
      )
      (11): Upsample(scale_factor=2.0, mode='nearest')
      (12): Concat()
      (13): C3(
        (cv1): Conv(
          (conv): Conv2d(512, 128, kernel_size=(1, 1), stride=(1, 1))
          (act): SiLU(inplace=True)
        )
        (cv2): Conv(
          (conv): Conv2d(512, 128, kernel_size=(1, 1), stride=(1, 1))
          (act): SiLU(inplace=True)
        )
        (cv3): Conv(
          (conv): Conv2d(256, 256, kernel_size=(1, 1), stride=(1, 1))
          (act): SiLU(inplace=True)
        )
        (m): Sequential(
          (0): Bottleneck(
            (cv1): Conv(
              (conv): Conv2d(128, 128, kernel_size=(1, 1), stride=(1, 1))
              (act): SiLU(inplace=True)
            )
            (cv2): Conv(
              (conv): Conv2d(128, 128, kernel_size=(3, 3), stride=(1, 1), padding=(1, 1))
              (act): SiLU(inplace=True)
            )
          )
        )
      )
      (14): Conv(
        (conv): Conv2d(256, 128, kernel_size=(1, 1), stride=(1, 1))
        (act): SiLU(inplace=True)
      )
      (15): Upsample(scale_factor=2.0, mode='nearest')
      (16): Concat()
      (17): C3(
        (cv1): Conv(
          (conv): Conv2d(256, 64, kernel_size=(1, 1), stride=(1, 1))
          (act): SiLU(inplace=True)
        )
        (cv2): Conv(
          (conv): Conv2d(256, 64, kernel_size=(1, 1), stride=(1, 1))
          (act): SiLU(inplace=True)
        )
        (cv3): Conv(
          (conv): Conv2d(128, 128, kernel_size=(1, 1), stride=(1, 1))
          (act): SiLU(inplace=True)
        )
        (m): Sequential(
          (0): Bottleneck(
            (cv1): Conv(
              (conv): Conv2d(64, 64, kernel_size=(1, 1), stride=(1, 1))
              (act): SiLU(inplace=True)
            )
            (cv2): Conv(
              (conv): Conv2d(64, 64, kernel_size=(3, 3), stride=(1, 1), padding=(1, 1))
              (act): SiLU(inplace=True)
            )
          )
        )
      )
      (18): Conv(
        (conv): Conv2d(128, 128, kernel_size=(3, 3), stride=(2, 2), padding=(1, 1))
        (act): SiLU(inplace=True)
      )
      (19): Concat()
      (20): C3(
        (cv1): Conv(
          (conv): Conv2d(256, 128, kernel_size=(1, 1), stride=(1, 1))
          (act): SiLU(inplace=True)
        )
        (cv2): Conv(
          (conv): Conv2d(256, 128, kernel_size=(1, 1), stride=(1, 1))
          (act): SiLU(inplace=True)
        )
        (cv3): Conv(
          (conv): Conv2d(256, 256, kernel_size=(1, 1), stride=(1, 1))
          (act): SiLU(inplace=True)
        )
        (m): Sequential(
          (0): Bottleneck(
            (cv1): Conv(
              (conv): Conv2d(128, 128, kernel_size=(1, 1), stride=(1, 1))
              (act): SiLU(inplace=True)
            )
            (cv2): Conv(
              (conv): Conv2d(128, 128, kernel_size=(3, 3), stride=(1, 1), padding=(1, 1))
              (act): SiLU(inplace=True)
            )
          )
        )
      )
      (21): Conv(
        (conv): Conv2d(256, 256, kernel_size=(3, 3), stride=(2, 2), padding=(1, 1))
        (act): SiLU(inplace=True)
      )
      (22): Concat()
      (23): C3(
        (cv1): Conv(
          (conv): Conv2d(512, 256, kernel_size=(1, 1), stride=(1, 1))
          (act): SiLU(inplace=True)
        )
        (cv2): Conv(
          (conv): Conv2d(512, 256, kernel_size=(1, 1), stride=(1, 1))
          (act): SiLU(inplace=True)
        )
        (cv3): Conv(
          (conv): Conv2d(512, 512, kernel_size=(1, 1), stride=(1, 1))
          (act): SiLU(inplace=True)
        )
        (m): Sequential(
          (0): Bottleneck(
            (cv1): Conv(
              (conv): Conv2d(256, 256, kernel_size=(1, 1), stride=(1, 1))
              (act): SiLU(inplace=True)
            )
            (cv2): Conv(
              (conv): Conv2d(256, 256, kernel_size=(3, 3), stride=(1, 1), padding=(1, 1))
              (act): SiLU(inplace=True)
            )
          )
        )
      )
      (24): Detect(
        (m): ModuleList(
          (0): Conv2d(128, 255, kernel_size=(1, 1), stride=(1, 1))
          (1): Conv2d(256, 255, kernel_size=(1, 1), stride=(1, 1))
          (2): Conv2d(512, 255, kernel_size=(1, 1), stride=(1, 1))
        )
      )
    )
  )
)